Rubik/results/italy/experiment_name_step0_rewardModel.pth (torch, 2720 bytes, 3 tensors)

layer1.weight f4 [8, 9]
0	0xbda2a770	-0.079420924
1	0x3e8c9899	0.27460173
2	0x3d962664	0.07331541
3	0x3e521e22	0.20519307
4	0x3ddd33fc	0.10800931
5	0xbd1aecd8	-0.037823528
6	0x3e8a8721	0.2705622
7	0xbe34c470	-0.1765306
8	0x3e9c9fcb	0.30590662
9	0xbe935c6b	-0.28781447
10	0xbbd0e2c0	-0.006374687
11	0xbe276326	-0.16346416
12	0x3e37093e	0.1787462
13	0x3d6be958	0.05759558
14	0x3e01b4a0	0.12666559
15	0xbe507b4b	-0.20359533
16	0xbe3c85fe	-0.18410489
17	0x3e0e070a	0.13869873
18	0x3dcff060	0.1015327
19	0xbdb344dc	-0.08753368
20	0xbe40db4b	-0.18833654
21	0x3e7933c6	0.24336156
22	0xbe1ef990	-0.15524888
23	0xbe4bab46	-0.19889554
24	0x3e9df2e7	0.30849382
25	0xbe8ea9f2	-0.27864033
26	0xbe6dc188	-0.23218358
27	0xbc518200	-0.012787342
28	0xbe2ba2a8	-0.16761267
29	0xbc8b17d0	-0.016979128
30	0xbe56f8a8	-0.20993292
31	0xbe45a566	-0.19301376
32	0xbe2d0b7e	-0.16898915
33	0x3dda3a1c	0.10655615
34	0xbc671060	-0.014103025
35	0xbe81f7dc	-0.25384414
36	0xbd7196a0	-0.058981538
37	0x3e376802	0.1791077
38	0xbe7e64d6	-0.24843153
39	0x3e4cccaa	0.19999948
40	0xbdb01d50	-0.08599341
41	0x3deb20e4	0.11480883
42	0x3ea5476b	0.3228105
43	0x3e2574e8	0.16157877
44	0xbbfbb1c0	-0.0076811016
45	0xbe347efe	-0.17626569
46	0xbe33932b	-0.17536609
47	0xbcac4270	-0.021027774
48	0xbc07cbe0	-0.008288354
49	0x3e40e722	0.1883817
50	0xbd8fa900	-0.07014656
51	0xbd97d01c	-0.074127406
52	0x3da501bc	0.080569714
53	0xbe3a053e	-0.18166062
54	0xbc145b20	-0.009054929
55	0x3d4cb038	0.049972743
56	0xbe917216	-0.28407353
57	0x3de9228c	0.113835424
58	0xbe95c4a2	-0.2925158
59	0x3e6049ee	0.21903202
60	0xbe3ac513	-0.1823924
61	0x3d0dd238	0.03462431
62	0x3ea877f9	0.32904032
63	0x3e187ff0	0.14892554
64	0x3ddd167c	0.10795304
65	0x3bb6d800	0.0055799484
66	0xbe029630	-0.12752604
67	0x3d371340	0.044696093
68	0x3da57180	0.08078289
69	0x3e1f469a	0.15554276
70	0xbea6e778	-0.32598472
71	0xbd88d1e4	-0.066806585

layer1.bias f4 [8]
0	0xbda48114	-0.08032432
1	0xbe35e2ee	-0.17762348
2	0x3df92bdc	0.12166569
3	0xbe64bd08	-0.22337735
4	0x3d302d88	0.043012172
5	0x3b91a4c0	0.0044446886
6	0xbdb2329c	-0.08701059
7	0x3e9acb87	0.30233404

output_layer.weight f4 [1, 8]
0	0x3dae8464	0.08521345
1	0xbe03d9d2	-0.1287606
2	0x3e62753a	0.22115031
3	0x3e7c5426	0.24641475
4	0xbcd1d400	-0.025613785
5	0x3cb31c30	0.021864027
6	0xbe754266	-0.2395111
7	0xbdb0ba74	-0.08629313
