Rubik/results/italy/experiment_name_step1_agentModel_net.pth (torch, 40376 bytes, 4 tensors)

fc1.weight f4 [128, 54]
-0.0030875616 -0.09768058 -0.08548562 -0.054752123 0.08771152 -0.006165992 -0.005573052 0.009278754
0.06834456 0.037261177 0.16922118 -0.016591864 -0.123915635 -0.07175932 0.15218846 -0.04977309
-0.012627789 0.06759566 -0.06974545 0.123097405 0.15435648 -0.062682725 -0.021236384 0.08133014
0.122278616 0.06808754 -0.08800484 0.009268668 -0.030830156 -0.05115125 -0.049452588 0.0060129464
0.09701897 -0.035863377 0.028370438 -0.13385221 0.102361515 0.041018546 0.08800387 0.08669014
0.104688995 0.07667792 0.12497034 0.111844525 -0.015987966 0.09429278 -0.08712924 0.14546959
0.14008841 -0.07440673 -0.06619845 0.12911999 -0.069016665 -0.10041358 -0.02549321 -0.051042177
0.12138898 -0.06702031 0.10649686 0.13209958 -0.016779965 -0.10281745 -0.014997265 0.06762955
-0.10531811 0.075410925 -0.056557436 0.06574228 0.07929046 -0.10387728 -0.08451565 0.023047287
0.074630074 -0.02677514 0.0601163 -0.0691493 0.08484203 0.022555571 -0.09186206 -0.09437488
-0.061942104 0.09043113 0.11137243 -0.1121138 0.11997278 -0.028899366 0.1299144 -0.010224343
0.022777388 0.09419264 0.017979058 -0.07164414 0.06316478 -0.09402881 0.048553124 0.09428716
-0.02196256 0.09655413 -0.024256572 0.007334151 0.13871767 0.13211493 -0.009163446 0.056360994
0.13974781 -0.11203312 -0.04670085 0.103921 0.039217707 -0.05484579 -0.022960037 -0.10006094
0.09147795 -0.070434295 -0.04668283 -0.029394915 -0.12319966 0.12575345 0.13084464 -0.079288736
-0.1266798 0.08820741 -0.08317877 0.07639013 0.015431408 0.13079363 -0.12904668 0.12643167
0.039767954 0.09141234 0.1190893 0.03359631 0.030076444 -0.059151787 0.11942146 -0.120715395
0.012933899 0.03383509 -0.08441607 -0.12383427 0.027892977 -0.11262252 0.10693145 -0.09088637
0.054171264 -0.10761017 0.017718434 0.016557692 -0.035106093 0.08786105 0.10766342 -0.12947083
0.101616696 -0.06914426 0.10443579 0.1374265 -0.0434077 0.10737182 -0.029405612 0.13103604
-0.042634945 0.075730756 -0.03982714 0.051193427 0.08519513 -0.11585182 -0.03389489 0.14060356
-0.04354655 -0.016669666 0.133013 -0.1550759 0.076830424 -0.12113941 -0.113896266 0.10188373
0.12480963 0.010613084 -0.110638656 0.12920003 0.040142257 0.0053373133 0.05450857 0.055129983
0.146796 0.027843134 0.11688831 0.052831862 0.08604765 0.026490912 0.13014553 -0.093632266
0.05946421 0.08796336 0.13113588 0.13388214 0.04813775 -0.10367017 0.05110497 0.10550688
0.13131408 -0.046520922 -0.023791438 -0.078832544 0.11306466 0.13115348 0.0035067052 -0.077840686
0.10033513 -0.08380391 -0.075415544 -0.05558462 0.06339937 -0.021330576 0.06226471 -0.11332274
0.068220995 -0.08563951 0.088434696 -0.08315283 -0.024110217 0.0017126218 -0.10731011 8.5750355e-05
0.14679612 -0.122660026 0.09023129 -0.083812505 -0.004029181 0.07570124 -0.121933594 0.025044136
0.13361628 -0.05613729 0.08559116 -0.059890624 0.04108968 0.04925213 -0.085847504 0.05951421
-0.09894315 0.1004898 0.13329141 -0.031999514 -0.015251594 0.06974238 -0.050625835 -0.024316477
-0.016391588 -0.010356663 0.0038130276 -0.004859312 0.119843826 0.14606972 0.121562794 -0.011980932
00000000: b058 4abb c20c c8bd 1613 afbd c343 60bd
00000010: 19a2 b33d 170c cabb 269e b6bb ea05 183c
00000020: 3cf8 8b3d 2d9f 183d 5148 2d3e a9eb 87bc
00000030: 7bc7 fdbd 8df6 92bd 4bd7 1b3e dede 4bbd
00000040: c9e4 4ebc 986f 8a3d b4d6 8ebd 7e1a fc3d
00000050: a00f 1e3e cd5f 80bd edf7 adbc 6b90 a63d
00000060: 366d fa3d 7b71 8b3d e23b b4bd 9cdb 173c
00000070: 868f fcbc f983 51bd cc8e 4abd 4008 c53b
00000080: e2b1 c63d 7ae5 12bd 1f69 e83c 8e10 09be
00000090: eaa2 d13d 1003 283d 5f3b b43d 9a8a b13d
000000a0: 2f67 d63d 5009 9d3d 73f0 ff3d be0e e53d
000000b0: 32f9 82bc 931c c13d d170 b2bd fbf5 143e
000000c0: 5673 0f3e 8e62 98bd 0e93 87bd 0838 043e
000000d0: 9c58 8dbd a3a5 cdbd 23d7 d0bc 9a11 51bd
000000e0: c99a f83d f241 89bd 071b da3d 1d45 073e
000000f0: 2376 89bc f591 d2bd 17b7 75bc 5d81 8a3d
00000100: 05b1 d7bd 0b71 9a3d c5a8 67bd e3a3 863d
00000110: 0963 a23d 9dbd d4bd 8b16 adbd aacd bc3c
00000120: a7d7 983d 8a57 dbbc 823c 763d 269e 8dbd
00000130: a9c1 ad3d 76c6 b83c 2d22 bcbd 9e47 c1bd
00000140: 01b7 7dbd f533 b93d 3b17 e43d ec9b e5bd
00000150: 4ab4 f53d 5dbe ecbc 4808 053e 0184 27bc
00000160: a597 ba3c 12e8 c03d d148 933c 2aba 92bd
00000170: 895c 813d 2d92 c0bd a4df 463d a019 c13d
00000180: d4ea b3bc 2cbe c53d b8b5 c6bc 5153 f03b
00000190: 010c 0e3e 2349 073e 4722 16bc c9da 663d
000001a0: 0d1a 0f3e 9f71 e5bd 6449 3fbd 89d4 d43d
000001b0: bfa2 203d fba5 60bd b016 bcbc c0ec ccbd
000001c0: cb58 bb3d db3f 90bd 7f36 3fbd 9bcd f0bc
000001d0: 1a50 fcbd 83c5 003e 23fc 053e 2262 a2bd
000001e0: 59b8 01be 16a6 b43d a259 aabd 6e72 9c3d
000001f0: 04d4 7c3c c4ee 053e d024 04be 4e77 013e
00000200: b9e3 223d 6536 bb3d 17e5 f33d 499c 093d
00000210: e062 f63c 2549 72bd 3d93 f43d a239 f7bd
00000220: b4e8 533c aa96 0a3d 55e2 acbd d29c fdbd
00000230: d07f e43c a3a6 e6bd e0fe da3d a222 babd
00000240: b0e2 5d3d b962 dcbd 4026 913c ffa3 873c
00000250: 68cb 0fbd 7ff0 b33d a47e dc3d 0094 04be
00000260: 6a1c d03d 819b 8dbd 6ee2 d53d 88b9 0c3e
00000270: 46cc 31bd c2e5 db3d 0ae4 f0bc 502e 063e
00000280: fba1 2ebd ba18 9b3d c821 23bd 33b0 513d
00000290: c97a ae3d b843 edbd 5ed5 0abd 61fa 0f3e
000002a0: de5d 32bd d38e 88bc 8f34 083e 37cc 1ebe
000002b0: 4559 9d3d f017 f8bd 7242 e9bd 6ba8 d03d
000002c0: 319c ff3d 80e2 2d3c 8596 e2bd 034d 043e
000002d0: 356c 243d a1e4 ae3b 6144 5f3d facf 613d
000002e0: b151 163e 4917 e43c 2363 ef3d 3966 583d
000002f0: c039 b03d 7803 d93c df44 053e 46c2 bfbd
00000300: be90 733d 2226 b43d 7c48 063e 6618 093e
00000310: 172c 453d 0751 d4bd 7253 513d fe13 d83d
00000320: 3377 063e b98c 3ebd 43e6 c2bc f572 a1bd
00000330: 728e e73d 194d 063e c0d0 653b f06a 9fbd
00000340: 817c cd3d 62a1 abbd 7773 9abd b3ac 63bd
00000350: 87d7 813d 76bd aebc 4809 7f3d c115 e8bd
00000360: 73b7 8b3d c463 afbd 401d b53d 084c aabd
00000370: ca82 c5bc 0d7a e03a 67c5 dbbd dfd4 b338
00000380: b951 163e 2e35 fbbd 2fcb b83d e4a5 abbd
00000390: 3807 84bb 4009 9b3d 52b8 f9bd 5c29 cd3c
000003a0: b5d2 083e 37f0 65bd 6b4a af3d df4f 75bd
000003b0: a74d 283d 9abc 493d d1d0 afbd 2cc5 733d
000003c0: b5a2 cabd 99cd cd3d 8b7d 083e ec11 03bd
000003d0: d2e1 79bc 18d5 8e3d 095d 4fbd 5933 c7bc
000003e0: a747 86bc feae 29bc fde3 793b dd3a 9fbb
000003f0: ae70 f53d 4d93 153e eaf5 f83d ac4b 44bc

fc1.bias f4 [128]
0.13930266 0.14000839 -0.13028875 -0.020922601 0.07802177 -0.11918666 -0.060256608 -0.06956142
-0.00022755993 0.12387891 0.12779373 0.018821862 0.07366389 0.054885823 -0.03978567 0.11912667
0.047194768 0.02665753 -0.06532716 -0.068816155 0.08763649 -0.017826233 0.12626307 0.0641977
0.07397071 0.057518844 0.1273977 0.008766503 -0.031268623 -0.090288036 0.07373384 -0.054069202
0.08464231 -0.003580153 -0.0151486965 -0.0664017 0.119938314 -0.03238872 0.09214666 0.13776313
0.028431833 -0.056018274 -0.12217075 -0.012831555 -0.03032224 -0.14195922 -0.09060267 -0.10257497
-0.021754038 0.07329636 -0.042269494 0.06525564 -0.03441517 -0.025615823 0.08957005 0.097974695
-0.09981688 0.07003313 -0.04807241 -0.062457073 0.036766738 -0.007173827 0.08744203 -0.014860455
-0.0068185916 -0.06907217 0.05137429 -0.0092262775 0.057115573 -0.080826215 -0.056261696 -0.0015683547
0.09485515 0.106789686 -0.080083385 0.043985825 -0.019526588 0.035188794 0.10952184 -0.033677194
-0.099787876 -0.09065174 0.118810736 0.07637618 0.044748843 -0.114447296 -0.09838726 -0.017175265
-0.11175336 -0.080571085 -0.016032409 0.026890634 0.10392842 0.033948034 -0.06888394 -0.11114586
0.09907946 0.11480817 -0.009721639 0.10102808 0.05930904 0.05804907 0.06341858 0.054105546
-0.0726918 0.08145295 -0.009132567 -0.056839846 0.11627058 0.07780088 0.10351536 0.14857432
-0.10837544 -0.059213016 -0.099916495 0.009225691 -0.09786768 0.0049353363 -0.14492238 0.04315313
0.12408036 0.13716295 -0.09036942 -0.0107180895 0.07617211 -0.10643011 -0.028548522 -0.10606123
00000000: 5ba5 0e3e 5c5e 0f3e 6a6a 05be e065 abbc
00000010: e1c9 9f3d 2318 f4bd a2cf 76bd 3876 8ebd
00000020: 279d 6eb9 3ab4 fd3d 5cdc 023e 4e30 9a3c
00000030: 18dd 963d f5cf 603d 4cf6 22bd aff8 f33d
00000040: 4d4f 413d e460 da3c 3fca 85bd 7cef 8cbd
00000050: c37a b33d 5208 92bc 1b4b 013e 157a 833d
00000060: f57d 973d e198 6b3d 8b74 023e 61a1 0f3c
00000070: 8713 00bd efe8 b8bd c401 973d ab77 5dbd
00000080: f358 ad3d 00a1 6abb 3d32 78bc 9dfd 87bd
00000090: 38a2 f53d 09aa 04bd 63b7 bc3d c711 0d3e
000000a0: e0e9 e83c 6b73 65bd a834 fabd 713b 52bc
000000b0: 5966 f8bc c25d 11be e58d b9bd d312 d2bd
000000c0: 8635 b2bc 671c 963d c722 2dbd c0a4 853d
000000d0: ecf6 0cbd 46d8 d1bc 8170 b73d f5a6 c83d
000000e0: cb6c ccbd 886d 8f3d 93e7 44bd fdd2 7fbd
000000f0: b898 163d 6c12 ebbb cf14 b33d 4479 73bc
00000100: 7e6e dfbb b675 8dbd d96d 523d d029 17bc
00000110: 05f2 693d 3788 a5bd aa72 66bd 4091 cdba
00000120: 6b43 c23d 8db4 da3d c202 a4bd 7b2a 343d
00000130: 39f6 9fbc 2022 103d fd4c e03d 19f1 09bd
00000140: 965d ccbd 9fa7 b9bd 0b53 f33d 1d6b 9c3d
00000150: 904a 373d 5863 eabd 437f c9bd 24b3 8cbc
00000160: f2de e4bd 7402 a5bd 6656 83bc bf49 dc3c
00000170: 6cd8 d43d 180d 0b3d 0613 8dbd 71a0 e3bd
00000180: 2cea ca3d 8c20 eb3d 8247 1fbc cfe7 ce3d
00000190: 09ee 723d ddc4 6d3d 9ae1 813d c79d 5d3d
000001a0: 70df 94bd ced0 a63d c3a0 15bc e6d0 68bd
000001b0: 451f ee3d 1156 9f3d dcff d33d de23 183e
000001c0: f1f3 ddbd 5989 72bd 05a1 ccbd 5a27 173c
000001d0: da6e c8bd 9ab8 a13b 8866 14be 56c1 303d
000001e0: d81d fe3d 7274 0c3e 9a13 b9bd ed9a 2fbc
000001f0: 2000 9c3d 08f8 d9bd 97de e9bc a136 d9bd

fc2.weight f4 [19, 128]
-0.0026081288 0.08051308 -0.100352116 0.08754045 0.09030246 -0.04752893 0.030863414 -0.054441504
0.10125353 -0.06779284 0.028123902 -0.022825949 0.06447549 0.10050633 -0.017468307 -0.03209343
0.08763579 0.058083206 -0.014685066 0.09174598 0.033495177 -0.10888202 0.045943856 0.044726104
-0.07422625 0.0694575 0.06472238 0.006429821 -0.060388096 -0.039955128 -0.0070276265 0.09673683
-0.015380588 0.024256334 0.0052587274 -0.016829621 0.08091612 0.045555323 -0.09774454 -0.034466967
0.07567931 0.009364461 0.055123642 -0.02626847 0.093258455 -0.073344916 -0.080464795 0.03651106
-0.0073912353 -0.053837195 -0.071306325 -0.060423214 0.010949161 0.0003816853 -0.05612975 0.0040823948
0.09243552 0.053426478 0.018347915 0.012274261 -0.071317695 -0.07976792 0.008281538 -0.033567116
-0.088318646 0.055187862 0.09491899 -0.07542963 0.01322243 0.045730855 0.053059228 0.053884037
0.0025104221 -0.06313126 0.0996098 -0.038901042 -0.080890745 0.010934872 0.059319694 -0.07464326
0.09674926 0.047657087 -0.085565604 0.09549623 -0.13390031 -0.042679694 -0.07740278 -0.0389761
0.05248962 0.08774765 -0.05258063 -0.02156943 0.10018482 -0.04122384 -0.063383974 -0.081350185
0.06495241 -0.017918216 -0.07296269 0.06255314 0.030058261 -0.043356195 -0.078257315 -0.030318808
0.05637837 -0.044959523 -0.012888452 0.04597096 -0.035835586 0.084105775 0.010042279 -0.033072937
-0.029230922 -0.002343295 -0.07442352 -0.03323658 0.0878401 -0.031280074 -0.05502922 0.037178222
-0.07234183 -0.0004792592 0.0012875579 0.08265521 -0.07435875 0.017624019 0.03834139 -0.06753056
0.054091148 -0.09647635 0.057376686 -0.042020313 -0.037150618 0.045963716 0.035804916 0.006098338
0.07664105 -0.044574313 -0.024235727 -0.07811552 -0.061761364 -0.09338402 0.028595155 -0.0868941
0.0011164978 -0.07312849 0.05214794 0.02949992 0.01160681 -0.20757307 0.028482307 -0.023160987
0.045931052 0.021076394 -0.026547477 -0.107521005 0.042337272 -0.09640234 -0.0023000273 0.06316802
0.0147549575 -0.103109956 0.032655224 -0.041369695 -0.018934058 -0.013277978 0.020196613 0.005383601
0.029843919 0.030797798 -0.024352744 -0.08485303 0.0034247912 0.040428694 -0.022577967 0.010222605
-0.055692177 -0.033185534 0.055833697 0.07585415 -0.019395925 0.08525983 -0.052692745 -0.09108607
0.0745599 0.03338587 0.052385736 -0.09561507 -0.08675802 0.078844436 0.033949036 0.008390699
0.04137582 -0.026186114 0.048475754 0.054833107 0.011691303 -0.07228568 -0.088522755 -0.012131802
0.025204476 -0.08048525 -0.074420676 -0.05637057 -0.09162729 0.0015427419 0.015320407 -0.047932528
0.063112594 -0.044116255 -0.06419961 -0.0823781 -0.031729948 -0.048850864 -0.010822707 -0.05639671
0.020913271 -0.08273903 0.0631943 -0.03044384 -0.09914812 0.025356421 0.06825405 -0.054582328
0.04734665 -0.004910533 0.029468294 -0.081536725 -0.067617826 -0.034555033 -0.03489074 -0.09993212
0.019919585 0.06064402 -0.0065921764 -0.035118338 -0.096627094 0.079931036 0.0822906 -0.032009292
-0.029308127 0.05163143 -0.030857593 0.031694394 -0.1046868 0.08250677 0.028026763 0.023342213
-0.031275995 -0.039486665 0.047049392 -0.02835402 -0.026873536 0.013738781 -0.09347788 0.0741205
00000000: 24ed 2abb 0be4 a43d 6985 cdbd 6848 b33d
00000010: 7ff0 b83d b2ad 42bd 45d5 fc3c 0efe 5ebd
00000020: 035e cf3d f9d6 8abd 1964 e63c 7cfd babc
00000030: ba0b 843d 43d6 cd3d b219 8fbc 6774 03bd
00000040: 657a b33d a8e8 6d3d a299 70bc 51e5 bb3d
00000050: 3d32 093d 89fd debd a02f 3c3d b832 373d
00000060: ef03 98bd bc3f 8e3d 2b8d 843d 3fb1 d23b
00000070: 8259 77bd fda7 23bd 0148 e6bb f61d c63d
00000080: ddfe 7bbc 38b5 c63c 6751 ac3b 46de 89bc
00000090: 5ab7 a53d 3898 3a3d 4a2e c8bd 3c2d 0dbd
000000a0: c1fd 9a3d 656d 193c 54c9 613d f930 d7bc
000000b0: 4afe be3d dc35 96bd baca a4bd 9f8c 153d
000000c0: 2d32 f2bb 6484 5cbd 0d09 92bd 557e 77bd
000000d0: 1c64 333c ef1c c839 4fe8 65bd 9cc5 853b
000000e0: d54e bd3d b9d5 5a3d 5e4e 963c fb19 493c
000000f0: 030f 92bd 5d5d a3bd 4aaf 073c ac7d 09bd
00000100: 68e0 b4bd ab0c 623d e364 c23d da7a 9abd
00000110: e4a2 583c 4750 3b3d a254 593d 82b5 5c3d
00000120: e585 243b f64a 81bd 3900 cc3d b356 1fbd
00000130: 0caa a5bd 2d28 333c 35f9 723d 91de 98bd
00000140: 7a24 c63d 1434 433d 053d afbd 8793 c33d
00000150: 2a1d 09be e7d0 2ebd 5985 9ebd 67a5 1fbd
00000160: 5bff 563d 0ab5 b33d c95e 57bd 60b2 b0bc
00000170: b32d cd3d 54da 28bd 75cf 81bd ed9a a6bd
00000180: c505 853d 39c9 92bc 766d 95bd dc1b 803d
00000190: be3c f63c 4496 31bd 5f45 a0bd 265f f8bc
000001a0: 01ed 663d 7a27 38bd 162a 53bc 0c4c 3c3d
000001b0: 56c8 12bd a63f ac3d 5f88 243c 7d77 07bd
000001c0: b075 efbc f791 19bb 5c6b 98bd 1523 08bd
000001d0: 83e5 b33d 891f 00bd 5266 61bd 3148 183d
000001e0: f427 94bd 1545 fbb9 46c3 a83a 2247 a93d
000001f0: 6649 98bd 3f60 903c dd0b 1d3d 764d 8abd
00000200: ae8e 5d3d 6595 c5bd d103 6b3d 7e1d 2cbd
00000210: 3f2b 18bd 7344 3c3d 2da8 123d 91d4 c73b
00000220: fcf5 9c3d 8e93 36bd 018a c6bc 08fb 9fbd
00000230: 7cf9 7cbd 1f40 bfbd 6340 ea3c 89f5 b1bd
00000240: 7357 923a 64c4 95bd 1499 553d d1a9 f13c
00000250: 7d2a 3e3c 098e 54be ba53 e93c 1cbc bdbc
00000260: 3322 3c3d 67a8 ac3c 187a d9bc f933 dcbd
00000270: d969 2d3d 976e c5bd 0ebc 16bb 3c5e 813d
00000280: c7be 713c 502b d3bd 7cc1 053d 4573 29bd
00000290: 991b 9bbc e08b 59bc 5e73 a53c eb68 b03b
000002a0: 3c7b f43c aa4b fc3c 687f c7bc 6dc7 adbd
000002b0: 7672 603b 8f98 253d 6ef5 b8bc b77c 273c
000002c0: 7b1d 64bd 8eed 07bd e0b1 643d 6c59 9b3d
000002d0: 34e4 9ebc b59c ae3d 59d4 57bd 558b babd
000002e0: dcb2 983d 9fbf 083d 6d92 563d d5d1 c3bd
000002f0: 30ae b1bd 3179 a13d 250e 0b3d 2479 093c
00000300: b179 293d 4384 d6bc 838e 463d ae98 603d
00000310: e18c 3f3c 840a 94bd 6b4b b5bd 77c4 46bc
00000320: 9e79 ce3c 73d5 a4bd de69 98bd d4e4 66bd
00000330: 17a7 bbbd d435 ca3a 7202 7b3c e654 44bd
00000340: 2d41 813d 3fb3 34bd 167b 83bd d9b5 a8bd
00000350: 43f7 01bd d817 48bd b951 31bc 3d00 67bd
00000360: 4f52 ab3c 1573 a9bd 036c 813d 5c65 f9bc
00000370: 2b0e cbbd 45b8 cf3c c8c8 8b3d b891 5fbd
00000380: 90ee 413d 89e8 a0bb 7e67 f13c bafc a6bd
00000390: 377b 8abd 9489 0dbd 98e9 0ebd 36a9 ccbd
000003a0: 662e a33c dd65 783d 2f03 d8bb 3fd8 0fbd
000003b0: 6de4 c5bd e2b2 a33d f987 a83d 2d1c 03bd
000003c0: 9917 f0bc 7a7b 533d 10c9 fcbc fbd1 013d
000003d0: 0866 d6bd 4ff9 a83d 6298 e53c 2b38 bf3c
000003e0: 421b 00bd c5bc 21bd ddb6 403d b146 e8bc
000003f0: e425 dcbc a018 613c 5571 bfbd 7dcc 973d

fc2.bias f4 [19]
-0.01151233 0.043794446 -0.016793882 0.034231465 0.008382077 -0.060737178 -0.08130217 -0.013639303
-0.03854818 0.06646783 -0.06386427 0.05036484 -0.019857347 -0.0074245073 -0.011788548 -0.06496799
-0.014701522 0.015046179 0.0039163567
00000000: 369e 3cbc ce61 333d 5393 89bc 4b36 0c3d
00000010: fb54 093c 8cc7 78bd c181 a6bd 6277 5fbc
00000020: b2e4 1dbd 4920 883d 45cb 82bd 5d4b 4e3d
00000030: e0ab a2bc 4849 f3bb c124 41bc f00d 85bd
00000040: a7de 70bc 4084 763c c854 803b
