Rubik/results/italy/experiment_name_step1_rewardModel.pth (torch, 2720 bytes, 3 tensors)

layer1.weight f4 [8, 9]
00000000: bee9 233d 06c6 243f 379e 373d 28ba 063e
00000010: 602c f33c 51b1 ecbd fe47 4e3e bb89 6dbe
00000020: b316 783e 55da 1cbe b7f3 0ebd 19f1 633d
00000030: 6732 ea3e 4979 a73e f036 cd3e 11be 4d3d
00000040: fc6f 483d 2ed3 be3e 8b94 263d cfa1 0abe
00000050: 0781 49be cc4a 2e3e ef3f 60be bbf8 65be
00000060: bc84 783e 477f afbe 580f 98be afc8 dd3e
00000070: cfb2 d93e 223b 6c3e 6e7a f8be 33a3 f7be
00000080: 22f3 fcbe 290d 7b3e 5279 393e e4d4 c1bd
00000090: 1560 10be b3c2 8fbd 9a45 c0bd 1b3c ca3e
000000a0: 6904 e93d 1411 a13e c794 023f 2036 ab3e
000000b0: e6a4 283e cb48 90be 47c3 29be 00d2 5a3e
000000c0: e469 bd3e 6062 fe3e 5ac0 823e cb30 663e
000000d0: ebe5 af3e e91e bd3d 4e26 003d 72e0 a23b
000000e0: 4f51 70be bd54 8a3e 9963 92bd ba90 d83e
000000f0: 694c 823c 3827 653e 191f 043f d64f 43bc
00000100: ec33 50be a350 973d f72a 093d 32ea 593e
00000110: 725e 7e3e 2439 9c3e 9da8 51be 597e 8a3d
0.040017836 0.6436466 0.04482862 0.1315695 0.029684246 -0.11557258 0.2014465 -0.23197071
0.24227409 -0.15317662 -0.034900393 0.05564985 0.4574158 0.3270972 0.40080976 0.05023009
0.04893492 0.37270492 0.040669005 -0.13538288 -0.19678126 0.1702072 -0.21899389 -0.22458164
0.24269384 -0.34276792 -0.29699206 0.43317172 0.42519233 0.23069432 -0.48530906 -0.483667
-0.49404246 0.24516739 0.18112686 -0.09464434 -0.14099152 -0.07019558 -0.093882754 0.39498982
0.11377794 0.31458342 0.51008266 0.33439732 0.16469154 -0.28180537 -0.16578399 0.21369171
0.3699485 0.4968443 0.25537378 0.2247955 0.343551 0.09234411 0.03128653 0.0049706036
-0.23468517 0.27017775 -0.07147903 0.42297918 0.015905576 0.22378242 0.5160995 -0.01192089
-0.20332307 0.07388427 0.03348824 0.21280745 0.24840716 0.30512345 -0.20474477 0.0676238

layer1.bias f4 [8]
00000000: b8c0 f9bd 4513 6a3d 2e15 723d 3121 8b3b
00000010: ab2a 573e 5738 8c3e 009f 183d fd66 cb3e
-0.12194961 0.057147283 0.05910223 0.0042459 0.2101237 0.27386734 0.03726101 0.3972701

output_layer.weight f4 [1, 8]
00000000: c5e4 4c3d 9d7c c2be de1c 2b3e bb29 423f
00000010: c771 49be 1b85 b3be 21f7 f3be 6c37 88be
0.05002286 -0.37985697 0.1671023 0.75844926 -0.19672309 -0.3506249 -0.47649482 -0.26604784
